checkpoints/ckpt_50_ep_seed_420.pt (torch, 5696 bytes, 6 tensors)

layers.0.weight f4 [16, 4]
-0.0042204475 -0.77467376 0.6871593 0.40143475 -0.6348072 -0.85329705 -0.079587184 -0.2889297
-0.42517906 -0.48718634 -0.5655855 -0.40375346 -0.049630865 1.0568 -0.7164859 -1.1109723
-0.40685162 -0.6889221 -0.5665485 -0.6202747 -0.30282313 0.033046834 -0.4841355 -0.86589044
0.27663606 0.0059141656 -0.557679 -0.53227186 -0.39370108 -0.17055163 0.61679095 0.8908413
-0.18862441 -0.92356014 -0.7095007 -0.4040548 -0.019128626 0.46190524 -0.6828625 -0.115492545
-1.0278538 -0.5199967 -0.5037255 -0.83204865 -0.6900115 -0.5425283 -0.31215602 -1.0782853
-0.62781703 -0.38556063 -0.48642778 -1.2133571 -0.5402976 -0.7840464 0.13802335 0.4033693
-0.41947135 0.54260504 -0.65845644 -0.5121703 -0.30617473 -0.5456863 -0.767533 -0.5292556
00000000: ae4b 8abb 0551 46bf ace9 2f3f db88 cd3e
00000010: ba82 22bf ad71 5abf 9bfe a2bd 98ee 93be
00000020: 12b1 d9be 7d70 f9be 36ca 10bf c6b8 cebe
00000030: bc49 4bbd 3945 873f 9f6b 37bf 5734 8ebf
00000040: db4e d0be 335d 30bf 5309 11bf 53ca 1ebf
00000050: a20b 9bbe 1e5c 073d 9ce0 f7be ffaa 5dbf
00000060: 3ea3 8d3e 9ecb c13b 0dc4 0ebf f842 08bf
00000070: 3093 c9be 16a5 2ebe 03e6 1d3f 2d0e 643f
00000080: c226 41be 706e 6cbf d6a1 35bf 45e0 cebe
00000090: a3b3 9cbc d87e ec3e 14d0 2ebf 5b87 ecbd
000000a0: b790 83bf 811e 05bf 28f4 00bf 2401 55bf
000000b0: 98a4 30bf 22e3 0abf ead2 9fbe 4105 8abf
000000c0: 9eb8 20bf 3468 c5be 100d f9be 494f 9bbf
000000d0: f250 0abf 44b7 48bf fe55 0d3e 6c86 ce3e
000000e0: f3c4 d6be 2ae8 0a3f 9a90 28bf 981d 03bf
000000f0: efc2 9cbe 19b2 0bbf 0b7d 44bf 4c7d 07bf

layers.0.bias f4 [16]
-0.85774153 -0.35124177 -0.37666693 0.82570434 -0.6535344 -0.5261101 0.44407672 -0.5596064
-0.7800415 0.23796211 -0.9900125 -0.5611461 -0.73699147 -0.72164273 0.2527904 -0.89743686
00000000: f394 5bbf f6d5 b3be 7dda c0be 5c61 533f
00000010: 084e 27bf 27af 06bf 065e e33e 5d42 0fbf
00000020: cdb0 47bf 57ac 733e 7671 7dbf 45a7 0fbf
00000030: 79ab 3cbf 94bd 38bf be6d 813e 6cbe 65bf

layers.2.weight f4 [32, 16]
-0.27047995 0.79982394 0.38490015 -0.40224314 0.41982833 -0.58713675 -0.87404394 -0.11666655
0.6489038 -0.2417063 0.19282642 -0.3726118 -0.36681408 0.090818554 0.17261031 -0.27268827
0.2545405 -0.18628593 0.20056519 -0.9323261 0.0936249 -0.67128706 -1.2117118 -0.29731795
-1.142192 -0.95407665 0.16805951 -0.33741114 -0.59245193 -1.3968418 -0.07306171 -0.037771612
-0.7672053 0.68466127 0.7547402 -1.5122944 0.3730099 -0.8469148 -0.86732787 -0.5798189
0.9992722 -0.749056 0.8731853 -0.7299986 -0.7972725 0.8454826 1.4419981 -0.9006115
-0.7638071 -0.44699723 0.28676024 0.9845291 0.11236692 0.09188218 0.02511224 -0.4569866
0.14439742 -0.19347191 0.15123262 -0.50386375 0.3786944 0.37261721 -1.2043946 -0.29617754
-0.45410675 0.91598266 0.32019085 1.0097187 0.24855725 -0.08592389 0.09944035 -0.63265216
0.036889076 -0.21568488 -0.14388898 -0.46095014 0.90125304 -0.2426563 -0.89747125 -0.13385092
0.55485356 -0.09099285 -0.03916627 -1.0975575 0.04608328 -0.0854898 -0.48994383 0.5345623
-0.018108599 -0.2609927 -0.55342364 0.16053282 0.2189214 -1.1982412 0.49898753 1.3185022
-0.81008327 0.9072028 0.48161542 1.687765 0.59488994 -0.43377405 -0.23937371 -0.48100242
0.5657782 -0.18827805 0.7762496 -0.37166992 -0.65421796 0.68261033 -1.8953973 -0.58936656
-0.34074703 0.4821718 0.1159287 -0.9236125 -0.07384395 -0.07738311 -0.59854674 -0.17506714
0.13787735 -0.5211183 -0.5578103 -0.044647034 1.0065883 -0.86895096 0.75661284 0.9040958
-1.081305 0.0743612 0.2999465 -0.49393487 0.45362663 -0.47150567 0.46965855 -0.5153855
0.49972025 0.45263088 0.6117003 -0.8588889 -0.64530516 -0.5203292 1.6017313 -0.5720279
-0.6495543 -0.41663513 -0.51486874 1.4360186 -0.476703 -0.005199878 1.4062796 -1.0488701
-0.70511436 1.517701 0.31684604 0.058493905 -0.5832894 0.50228405 -1.4462315 -0.41596597
0.9036266 -0.43110728 -0.22158764 -0.21606071 0.008332236 0.3616434 -0.33392292 2.1057587
0.6154592 0.009722798 -0.7631538 0.70371 0.54409033 0.23452292 1.9308487 0.82594526
-0.18662609 -0.073688135 0.42360768 0.015742809 0.6983988 0.21091385 -0.8362625 -0.23599546
0.23340836 -0.8492783 -0.45013762 -0.070130244 0.516869 -0.6147552 0.5666098 0.49076015
-0.41384608 0.44301957 0.20305961 1.4759707 0.11675368 0.114621595 0.38303202 -0.9644949
-0.02914239 0.058530226 -0.2001317 -0.21885462 0.60459816 0.5830696 -1.4268672 -0.11805919
-0.5535205 0.81147534 0.2817414 -0.46469945 0.3849906 -0.19049023 -0.6540034 -0.07008245
0.6218535 -0.5599455 0.28798053 -0.13705032 -0.6539326 0.10503768 0.5658863 -0.28297582
-0.9834388 0.5942088 0.73517835 -0.70227194 0.48874772 -0.35368446 -0.14846945 -1.0803899
0.12831835 -0.67550105 0.8336135 -1.0669008 -0.63704574 0.0404128 1.2054087 -0.6473252
-0.85885304 0.80013543 0.12345738 1.6162415 0.41315237 0.0818859 0.37252426 -1.2349107
0.091659084 0.32914433 0.061978977 -0.091446035 0.5548974 0.78067267 -1.625322 -0.42980477
00000000: 597c 8abe 43c1 4c3f a211 c53e d0f2 cdbe
00000010: bdf3 d63e 984e 16bf 58c1 5fbf dfee eebd
00000020: 8f1e 263f db81 77be 4a74 453e f9c6 bebe
00000030: 0ecf bbbe 14ff b93d c2c0 303e cc9d 8bbe
00000040: 2253 823e bdc1 3ebe f660 4d3e ecac 6ebf
00000050: 69be bf3d 78d9 2bbf 5f19 9bbf 0f3a 98be
00000060: 5933 92bf 5e3e 74bf cb17 2c3e 27c1 acbe
00000070: eeaa 17bf b6cb b2bf 61a1 95bd 68b6 1abd
00000080: 9167 44bf f645 2f3f a736 413f dd92 c1bf
00000090: 27fb be3e 69cf 58bf 3309 5ebf 036f 14bf
000000a0: 4ed0 7f3f 22c2 3fbf 1289 5f3f 30e1 3abf
000000b0: 0d1a 4cbf 8c71 583f 6593 b83f 7a8e 66bf
000000c0: dd88 43bf d2dc e4be 3dd2 923e 190a 7c3f
000000d0: a120 e63d b92c bc3d 2fb8 cd3c 26fa e9be
000000e0: ebdc 133e 801d 46be b9dc 1a3e 37fd 00bf
000000f0: 3be4 c13e afc7 be3e 9a29 9abf 95a4 97be
00000100: ae80 e8be d77d 6a3f 0ef0 a33e 763e 813f
00000110: cb85 7e3e ddf8 afbd 62a7 cb3d 7ef5 21bf
00000120: 0019 173d 7fdc 5cbe a257 13be a801 ecbe
00000130: 85b8 663f e57a 78be adc0 65bf 3710 09be
00000140: e20a 0e3f 765a babd d06c 20bd c47c 8cbf
00000150: d2c1 3c3d 4715 afbd ebd9 fabe 13d9 083f
00000160: 7c58 94bc d6a0 85be 2cad 0dbf b762 243e
00000170: ee2c 603e f85f 99bf 4b7b ff3e aec4 a83f
00000180: 9e61 4fbf 713e 683f 4c96 f63e af08 d83f
00000190: b54a 183f a217 debe 621e 75be f345 f6be
000001a0: d7d6 103f f6cb 40be 4bb8 463f 854b bebe
000001b0: d47a 27bf 8dbf 2e3f 619c f2bf bae0 16bf
000001c0: 6576 aebe 39df f63e 076c ed3d de71 6cbf
000001d0: 7f3b 97bd 097b 9ebd 5c3a 19bf cd44 33be
000001e0: b82f 0d3e 0268 05bf a8cc 0ebf cfdf 36bd
000001f0: e3d7 803f 9273 5ebf 61b1 413f d372 673f
00000200: 3468 8abf af4a 983d 9692 993e 08e5 fcbe
00000210: c041 e83e 3169 f1be 1677 f03e 4ef0 03bf
00000220: 55db ff3e 3cbf e73e 6498 1c3f 25e0 5bbf
00000230: b832 25bf 4b34 05bf 8805 cd3f 6c70 12bf
00000240: 3149 26bf 3351 d5be 70ce 03bf 75cf b73f
00000250: 6a12 f4be bd63 aabb f800 b43f 6041 86bf
00000260: 6082 34bf 0744 c23f a539 a23e 4e97 6f3d
00000270: 7452 15bf b095 003f 1d1e b9bf 7ef9 d4be
00000280: 1354 673f 18ba dcbe dfe7 62be 053f 5dbe
00000290: ee83 083c 5329 b93e f2f7 aabe c0c4 0640
000002a0: bc8e 1d3f 5f4c 1f3c 0c5e 43bf 5726 343f
000002b0: 8149 0b3f c726 703e 0d26 f73f 2671 533f
000002c0: e91a 3fbe cee9 96bd 1be3 d83e 10f7 803c
000002d0: 44ca 323f cdf9 573e 4d15 56bf cba8 71be
000002e0: 9a02 6f3e 4d6a 59bf 7078 e6be 72a0 8fbd
000002f0: 8751 043f 9960 1dbf 570d 113f ea44 fb3e
00000300: a2e3 d3be 76d3 e23e dcee 4f3e 9cec bc3f
00000310: 8e1c ef3d babe ea3d c61c c43e 23e9 76bf
00000320: 05bc eebc 64bd 6f3d 53ef 4cbe 6d1b 60be
00000330: f2c6 1a3f 0d44 153f 96a3 b6bf 04c9 f1bd
00000340: 85b3 0dbf d9bc 4f3f 6940 903e 16ed edbe
00000350: 7d1d c53e df0f 43be c46c 27bf 6387 8fbd
00000360: ca31 1f3f 9758 0fbf 2f72 933e eb56 0cbe
00000370: 2068 27bf ff1d d73d eddd 103f 35e2 90be
00000380: a5c2 7bbf 111e 183f a634 3c3f 18c8 33bf
00000390: 243d fa3e 2116 b5be 6008 18be 374a 8abf
000003a0: e365 033e a3ed 2cbf b267 553f 3590 88bf
000003b0: 6e15 23bf e487 253d d54a 9a3f 1bb7 25bf
000003c0: cbdd 5bbf add5 4c3f 39d7 fc3d 00e1 ce3f
000003d0: b588 d33e cbb3 a73d 80bb be3e 8e11 9ebf
000003e0: c2b7 bb3d 9b85 a83e abdd 7d3d 0f48 bbbd
000003f0: c20d 0e3f 2ada 473f 8d0a d0bf 5f0f dcbe

layers.2.bias f4 [32]
-0.053937376 1.3817253 -1.5237601 0.25704238 -0.22863787 0.56193686 -0.10058269 -0.1818017
-1.328074 -0.34937644 -0.44671077 -0.35159144 0.01359281 -0.2914568 -1.0315953 0.20248048
-0.081129506 -0.7282204 0.2722685 -0.3352309 -1.247645 -0.7307517 0.45446056 -0.1518594
0.17893323 0.3117649 -0.05229061 -0.6216703 1.5366508 -0.35970238 -0.06690644 -0.6380796
00000000: 70ed 5cbd 60dc b03f 920a c3bf 0f9b 833e
00000010: 0c20 6abe 18db 0f3f 4cfe cdbd 3a2a 3abe
00000020: 54fe a9bf 78e1 b2be 46b7 e4be cb03 b4be
00000030: 61b4 5e3c d339 95be 510b 84bf 0b57 4f3e
00000040: 3a27 a6bd a76c 3abf c766 8b3e 62a3 abbe
00000050: d5b2 9fbf 8b12 3bbf 0eaf e83e 0881 1bbe
00000060: 463a 373e a69f 9f3e ae2e 56bd c925 1fbf
00000070: f9b0 c43f e92a b8be 3e06 89bd 2f59 23bf

layers.4.weight f4 [3, 32]
0.18943688 -0.38098225 0.36599967 0.18079096 0.08001314 -0.94018495 0.45362723 -0.041315813
0.59681493 1.0082134 -1.9591992 -0.89713186 0.21799476 0.34141612 -0.0822236 0.7211697
0.55954385 0.5263814 -0.023560245 0.30519512 0.9886148 -0.22854857 0.27299872 -0.27509463
-0.4725923 -0.6723672 -0.16941041 -0.021997247 -0.5024889 -0.8822236 0.124996655 -0.46070406
0.33832112 0.9905731 -1.0539337 -0.025503246 0.10072601 0.2652571 0.25205198 0.1592662
-1.8980725 -1.7116345 -0.43312138 -0.11612965 -0.46186292 0.31391665 -1.058991 -0.58827895
0.34014142 -1.761879 0.032281935 -1.7745286 -1.3361628 -1.4598485 0.6251992 0.20317674
0.28177512 0.09163887 0.44352934 -1.4015565 1.1197654 -0.27554277 -0.6254557 -0.40293387
-0.35789055 -0.4561699 0.42341805 -0.22831924 0.038758628 0.28086123 -0.37065467 0.44974598
1.5290904 -0.2617212 0.9576561 0.5487286 -0.3021917 -0.28858462 1.1537836 -0.25129858
-0.20996289 0.9002809 0.017572304 1.2890515 -0.060861554 1.7272725 -0.32290688 0.08765153
0.09894325 0.295296 -0.15505452 1.3090525 -0.56713164 1.1204995 -0.039501525 0.65339273
00000000: befb 413e 1b10 c3be 4f64 bb3e 4421 393e
00000010: eedd a33d f6af 70bf d441 e83e c53a 29bd
00000020: ddc8 183f 230d 813f 0ac7 fabf 6faa 65bf
00000030: 053a 5f3e 18ce ae3e d964 a8bd 949e 383f
00000040: 443e 0f3f eec0 063f 6a01 c1bc 8942 9c3e
00000050: dc15 7d3f a308 6abe 7dc6 8b3e 34d9 8cbe
00000060: 9ef7 f1be 4220 2cbf ec79 2dbe 9233 b4bc
00000070: 1da3 00bf 68d9 61bf 3ffe ff3d 67e1 ebbe
00000080: 6d38 ad3e 3396 7d3f 4de7 86bf 2fec d0bc
00000090: 7049 ce3d c7cf 873e f50c 813e ae16 233e
000000a0: 0af4 f2bf d716 dbbf 16c2 ddbe 62d5 edbd
000000b0: 4c79 ecbe afb9 a03e 048d 87bf 7399 16bf
000000c0: 0427 ae3e 4085 e1bf 103a 043d c123 e3bf
000000d0: 6207 abbf 51dc babf 0e0d 203f 900d 503e
000000e0: d444 903e 29ad bb3d 4716 e33e 3466 b3bf
000000f0: 7954 8f3f f113 8dbe dd1d 20bf 594d cebe
00000100: 6e3d b7be 1a8f e9be 40ca d83e 85cc 69be
00000110: 5ec1 1e3d 0bcd 8f3e 73c6 bdbe 1b45 e63e
00000120: 3cb9 c33f 5200 86be f328 753f 7a79 0c3f
00000130: dfb8 9abe 5dc1 93be 2eaf 933f 35aa 80be
00000140: 8300 57be cf78 663f cbf3 8f3c a4ff a43f
00000150: f749 79bd 4417 dd3f 0d54 a5be a582 b33d
00000160: c2a2 ca3d 0a31 973e 9dc6 1ebe 088f a73f
00000170: 8a2f 11bf 876c 8f3f 5acc 21bd bf44 273f

layers.4.bias f4 [3]
0.16852778 0.5843872 -0.5636671
00000000: 8c92 2c3e 669a 153f 7d4c 10bf
