checkpoints/ckpt_50_ep_seed_0.pt (torch, 5676 bytes, 6 tensors)

layers.0.weight f4 [16, 4]
-0.74062043 -0.46576938 -1.149617 -1.1025118 -0.33716345 -0.10496587 0.035621516 0.5300356
-0.17494729 0.09525312 -0.39442468 -0.49884498 -0.9246187 -0.7982368 -0.5082456 0.81204915
0.19923401 0.50156903 -0.7902597 -0.76027566 -0.6797962 -0.75643444 -0.7119578 -0.17003733
-0.5569057 -0.31498617 -0.18570435 -1.153363 -1.0199465 -0.8676853 -0.5066129 0.10925702
-0.66850847 -0.5681623 -0.75762767 -1.0129963 -1.4417677 -0.31014276 -0.667693 -0.5062861
-0.6385759 -0.9324458 -0.50200415 -0.81458104 -0.3675252 -0.5564919 0.671462 0.94503707
-0.30185196 -0.36603335 0.6143223 0.99701536 -0.4558387 -0.55761385 -0.36413032 -0.9071492
-0.34161505 -0.7113355 -1.030541 -1.0070252 -0.32832864 -0.36947972 -0.59142935 -0.1536158
00000000: 4d99 3dbf 5379 eebe a626 93bf 1b1f 8dbf
00000010: b0a0 acbe 59f8 d6bd dee7 113d 6ab0 073f
00000020: 6225 33be 1114 c33d 08f2 c9be 9c68 ffbe
00000030: d0b3 6cbf 3f59 4cbf 621c 02bf 74e2 4f3f
00000040: 0004 4c3e d466 003f 764e 4abf 6da1 42bf
00000050: 2007 2ebf b0a5 41bf de42 36bf 441e 2ebe
00000060: 5f91 0ebf de45 a1be 4829 3ebe 66a1 93bf
00000070: 9b8d 82bf a020 5ebf 62b1 01bf 25c2 df3d
00000080: 5f23 2bbf 1673 11bf e3f3 41bf dda9 81bf
00000090: d88b b8bf 08cb 9ebe eeed 2abf f79b 01bf
000000a0: b679 23bf c5b4 6ebf 5883 00bf 6288 50bf
000000b0: 432c bcbe 4176 0ebf efe4 2b3f f3ed 713f
000000c0: 578c 9abe b968 bbbe 3a44 1d3f 663c 7f3f
000000d0: b163 e9be c8bf 0ebf 4a6f babe ee3a 68bf
000000e0: 2be8 aebe 151a 36bf c4e8 83bf 34e6 80bf
000000f0: b11a a8be 722c bdbe ea67 17bf 764d 1dbe

layers.0.bias f4 [16]
-0.46314543 -0.23279221 -0.07570755 -0.33192414 0.4019919 -0.44772294 -0.79277164 -0.90404326
-0.13740255 -0.6413952 -0.23752983 0.08751851 -0.17077972 -1.0663574 -0.3470294 -0.8838055
00000000: 6621 edbe 1561 6ebe 8f0c 9bbd f6f1 a9be
00000010: e2d1 cd3e f13b e5be 15f3 4abf 616f 67bf
00000020: 41b3 0cbe 7a32 24bf 053b 73be e83c b33d
00000030: e1e0 2ebe 667e 88bf d6ad b1be 1441 62bf

layers.2.weight f4 [32, 16]
0.25770158 0.14963908 0.19980067 0.4404905 -0.42876133 0.18124619 0.29089367 -0.47842062
1.0150402 -0.29791984 0.009319707 0.25616333 0.45875606 0.12225482 0.025275495 0.25017828
-0.43547645 -0.3826827 -1.0837927 0.45334974 -0.9373192 -0.30298343 0.62380415 0.7516939
0.23166606 0.7535669 -0.08595968 -0.6219899 -0.21598645 0.7638462 0.35644493 -0.52174264
-0.6205418 -0.26043916 -0.06239996 -0.8840866 -0.06649097 -0.251338 0.23837356 0.34687144
-0.79740727 0.5219279 0.33582163 -0.2878332 -0.8438632 0.062075663 -1.7773705 -0.45975387
0.40753502 -0.077758215 0.095106676 -0.4785557 -0.6257117 0.10989893 -0.4067603 -0.7812108
0.3507797 -0.6543904 -0.14065048 -0.28696305 -0.11387426 -0.48685622 0.7141319 1.0712893
0.37435898 -0.8209814 -0.48159668 -0.59266305 -0.36682543 -0.9863545 -0.47290808 -0.3979178
-0.05743315 -0.23335147 0.99343836 -0.8341054 -0.7114265 -0.723154 -0.82836866 0.062913634
0.18261631 -0.094750546 -0.39812365 0.4103708 -0.94568217 0.16047509 0.4824778 0.22362885
-0.43612128 0.24853173 0.15507722 -0.3423829 0.60976416 0.49454275 -0.17705648 0.3605017
-0.27895847 -0.48237997 -0.08572482 -0.8227466 -0.21804452 -0.53131473 0.29892275 0.3117212
-0.74652916 0.34079552 0.44646725 -1.0107232 -0.93617105 0.2703803 0.6742129 -0.10933618
0.44507352 -0.526547 0.03807566 -0.7333276 0.27696118 -0.36485776 -0.7542801 -0.6525371
0.020341557 -0.43839058 0.27897513 -0.92758983 -0.92513406 -0.42483455 -0.99327576 0.9062986
0.5623643 -0.63041097 -0.65950745 0.611338 -0.20076759 -0.68167603 0.95741177 1.0385513
1.1441512 0.18221715 0.77932364 1.1155188 0.34121957 0.88586867 -0.41427642 -1.0584717
-0.71732455 -0.8142699 -0.5704818 -0.6119589 -0.28665394 -0.83980525 -0.16252472 0.5423349
0.42186967 -0.27390447 1.0600189 -1.0598894 -0.615055 -0.6245365 -0.9506534 -0.53349346
-1.1928494 -1.1333807 0.7947954 -0.2939501 1.6904033 -0.9271808 -0.00078452035 0.66059947
-2.262077 0.4841205 -0.2802533 -0.6912946 -0.09110144 -0.5450963 -0.85705996 -1.3128589
-0.06277455 0.016590869 -0.17363212 0.4733055 -0.7940238 0.5261379 0.16307186 -0.38013
0.083091795 -0.15791638 -0.5811829 0.5776962 0.8491558 0.36303222 0.40581343 0.3964803
-1.2546734 -0.45788231 -0.5864143 -0.84457356 0.22821945 -0.43344924 0.22200012 0.38780174
-0.03148403 0.3651907 0.050834406 -0.9882663 -0.45481452 0.905975 -1.8126664 -0.30758265
-0.6391983 -0.25953323 -1.5555481 0.6801907 -0.966225 -0.92740047 0.5764305 0.46215957
0.4465586 0.8425128 0.8724509 -1.2207682 -0.040527783 0.68667644 0.46192124 -0.5152324
-0.5995865 -0.6858495 -0.18555205 -0.5993469 0.14390345 -0.2881233 0.015304425 0.24682523
-0.06026835 0.64957887 0.3368005 -0.78898525 -0.6251787 0.4590522 -1.5971236 -0.3386851
0.99394184 -0.278021 -0.17155376 -0.55069745 -0.25351557 -0.009575474 -0.31188056 -0.5578515
-0.265695 -0.97843385 -0.09723436 0.0162145 -0.17691433 -0.6048118 0.23846799 0.99758804
00000000: 76f1 833e fd3a 193e 8c98 4c3e f987 e13e
00000010: 9b86 dbbe 9a98 393e 04f0 943e 8cf3 f4be
00000020: d6ec 813f f388 98be afb1 183c d727 833e
00000030: 13e2 ea3e bc60 fa3d 8e0e cf3c 5e17 803e
00000040: c5f6 debe fdee c3be b8b9 8abf 751d e83e
00000050: 27f4 6fbf a520 9bbe a1b1 1f3f 036f 403f
00000060: de39 6d3e c3e9 403f a10b b0bd bb3a 1fbf
00000070: 8d2b 5dbe 6d8b 433f f37f b63e ed90 05bf
00000080: d4db 1ebf 4858 85be 1a97 7fbd 8053 62bf
00000090: 6b2c 88bd 60af 80be 3318 743e 2299 b13e
000000a0: e222 4cbf 119d 053f d0f0 ab3e e05e 93be
000000b0: 6b07 58bf 0d43 7e3d e080 e3bf dc64 ebbe
000000c0: 6ea8 d03e b33f 9fbd 4ac7 c23d 4105 f5be
000000d0: a42e 20bf b112 e13d e342 d0be 6efd 47bf
000000e0: 6699 b33e 2186 27bf ae06 10be d2ec 92be
000000f0: e836 e9bd 3845 f9be 59d1 363f 0220 893f
00000100: fbab bf3e d62b 52bf d793 f6be c4b8 17bf
00000110: 8bd0 bbbe ba81 7cbf 0221 f2be e2bb cbbe
00000120: 063f 6bbd b0f3 6ebe fa51 7e3f ee87 55bf
00000130: 0c20 36bf 9f20 39bf f80f 54bf ddd8 803d
00000140: c5ff 3a3e 930c c2bd ddd6 cbbe 1f1c d23e
00000150: 3a18 72bf 9553 243e 5507 f73e f6fe 643e
00000160: 4a4b dfbe 1a7f 7e3e 90cc 1e3e d04c afbe
00000170: 8119 1c3f b534 fd3e 4b4e 35be ae93 b83e
00000180: a5d3 8ebe 82fa f6be 7f90 afbd 859f 52bf
00000190: 1047 5fbe 3e04 08bf 670c 993e ec99 9f3e
000001a0: 891c 3fbf c07c ae3e 5b97 e43e 615f 81bf
000001b0: e8a8 6fbf 496f 8a3e 3799 2c3f a6eb dfbd
000001c0: ade0 e33e c9cb 06bf 39f5 1b3d 5cbb 3bbf
000001d0: dbcd 8d3e a3ce babe 8018 41bf ac0c 27bf
000001e0: 56a3 a63c bb74 e0be d4d5 8e3e 8776 6dbf
000001f0: 96d5 6cbf ea83 d9be 5247 7ebf 2f03 683f
00000200: 1bf7 0f3f 9d62 21bf 7bd5 28bf a680 1c3f
00000210: 0596 4dbe 5282 2ebf f018 753f 40ef 843f
00000220: 8c73 923f 2297 3a3e c181 473f 52c9 8e3f
00000230: 55b4 ae3e 4ac8 623f 0a1c d4be 007c 87bf
00000240: 95a2 37bf fe73 50bf 180b 12bf 57a9 1cbf
00000250: 4ec4 92be 7afd 56bf e16c 26be 76d6 0a3f
00000260: 4dff d73e 353d 8cbe b3ae 873f 75aa 87bf
00000270: 3f74 1dbf a0e1 1fbf 055e 73bf 0793 08bf
00000280: 4aaf 98bf 9e12 91bf b677 4b3f a180 96be
00000290: 235f d83f b95b 6dbf 45a8 4dba 0c1d 293f
000002a0: dfc5 10c0 a4de f73e 5c7d 8fbe aff8 30bf
000002b0: 6493 babd 6e8b 0bbf 4868 5bbf c30b a8bf
000002c0: f18f 80bd 93e9 873c 9ecc 31be 1955 f23e
000002d0: 2545 4bbf f9b0 063f 4ffc 263e 66a0 c2be
000002e0: 082c aa3d d5b4 21be 67c8 14bf e6e3 133f
000002f0: 4662 593f 5cdf b93e c7c6 cf3e 77ff ca3e
00000300: 2399 a0bf 8d6f eabe 3f1f 16bf f935 58bf
00000310: 5cb2 693e 0fed ddbe 0054 633e f38d c63e
00000320: 66f5 00bd 47fa ba3e bd37 503d 05ff 7cbf
00000330: 73dd e8be faed 673f 7405 e8bf 797b 9dbe
00000340: 80a2 23bf 8ae1 84be 331c c7bf fa20 2e3f
00000350: 865a 77bf 1e6a 6dbf f390 133f 2ea0 ec3e
00000360: 54a3 e43e ebae 573f f158 5f3f 2242 9cbf
00000370: 7600 26bd 07ca 2f3f f180 ec3e 45e6 03bf
00000380: 807e 19bf d593 2fbf 5b01 3ebe cc6e 19bf
00000390: 6d5b 133e e684 93be 69bf 7a3c c1bf 7c3e
000003a0: f2db 76bd cd4a 263f 1d71 ac3e f0fa 49bf
000003b0: b60b 20bf e408 eb3e 8c6e ccbf 2268 adbe
000003c0: f972 7e3f c558 8ebe caab 2fbe 82fa 0cbf
000003d0: cbcc 81be 73e2 1cbc cfae 9fbe 5bcf 0ebf
000003e0: 2d09 88be a47a 7abf cf22 c7bd 45d4 843c
000003f0: 0829 35be f2d4 1abf f430 743e ee61 7f3f

layers.2.bias f4 [32]
-0.5268589 -0.07791695 0.05256822 -0.5036981 -0.35291615 0.41294745 -0.14552253 -0.28818625
-0.6998096 -0.31702527 0.702188 0.30804425 -0.18429549 -0.5865111 0.08114277 -0.8145052
-0.19303511 -0.7382867 -0.43654454 -0.5154478 1.4507923 -0.21657665 -0.5699194 0.48883727
-0.37031955 -0.25566426 -0.04872289 -0.42753297 -0.10947361 0.66984606 0.005066732 -0.5376843
00000000: 3ae0 06bf ec92 9fbd c651 573d 5cf2 00bf
00000010: 6db1 b4be d96d d33e dc03 15be 268d 93be
00000020: b926 33bf 2351 a2be 98c2 333f fab7 9d3e
00000030: f5b7 3cbe 9725 16bf 2e2e a63d 6a83 50bf
00000040: ffaa 45be 5b00 3dbf c482 dfbe 63f4 03bf
00000050: 90b3 b93f 45c6 5dbe 3de6 11bf e148 fa3e
00000060: 869a bdbe 6de6 82be a791 47bd 9ae5 dabe
00000070: b333 e0bd 087b 2b3f d406 a63b aea5 09bf

layers.4.weight f4 [3, 32]
-0.72000724 -0.33873123 -0.06810875 -0.038244553 -0.32239312 -1.1470863 0.0738143 0.12535375
-0.1945291 -0.73927855 1.1132149 -1.3704112 0.07499666 -0.28832653 -0.17721365 0.09349395
-0.3146979 -0.2577566 0.7571712 -1.5664909 -0.7583558 -0.0963923 -0.6013714 0.25575027
-0.5850597 1.0006628 -1.2253786 -0.4044915 -0.23028682 -0.5059612 -1.5977998 -0.14441521
-0.18531804 0.2158156 -0.05022424 0.006435187 -1.5699958 0.40002766 0.091837436 -1.4548162
-0.24760607 -1.4269806 -0.008230861 0.32022685 -0.7434356 -1.2707357 -0.3757905 -0.49873137
-1.1469525 -0.1582629 -0.6681846 -0.16254516 0.828068 -0.20626147 -1.7126759 -0.25916398
-0.48984128 -0.94385153 0.1176303 -0.36895454 -0.9197641 0.47486198 0.059924964 -1.1972853
0.33718014 0.38683832 0.4893613 0.1476332 1.3588777 0.16970061 0.6830026 0.97598994
0.72047323 1.9469514 -1.290682 0.50067294 0.4642909 1.0782403 0.14926843 0.5179885
1.0455071 0.5893437 0.38211724 0.76040125 -0.26466885 1.1089772 1.4107614 -0.08720231
0.80680996 0.2736732 0.7941832 0.8733607 1.2937241 0.26396254 0.54707986 0.9802073
00000000: 6552 38bf 2e6e adbe 9a7c 8bbd 52a6 1cbd
00000010: b610 a5be b9d3 92bf f42b 973d bc5c 003e
00000020: a332 47be 5c41 3dbf d37d 8e3f a269 afbf
00000030: d997 993d 899f 93be 7f77 35be c279 bf3d
00000040: 1520 a1be acf8 83be f9d5 413f c682 c8bf
00000050: 9b23 42bf 5469 c5bd 7af3 19bf b3f1 823e
00000060: 79c6 15bf b815 803f 35d9 9cbf 8319 cfbe
00000070: 4fd0 6bbe ac86 01bf b484 ccbf 95e1 13be
00000080: 03c4 3dbe c4fe 5c3e efb7 4dbd 43de d23b
00000090: 9ff5 c8bf 6dd0 cc3e 4415 bc3d 6b37 babf
000000a0: 728c 7dbe 4da7 b6bf bcda 06bc c6f4 a33e
000000b0: cc51 3ebf 78a7 a2bf 9d67 c0be b859 ffbe
000000c0: 57cf 92bf ab0f 22be 250e 2bbf 3d72 26be
000000d0: 44fc 533f 3536 53be f738 dbbf 24b1 84be
000000e0: 7acc fabe 41a0 71bf 28e8 f03d 9ce7 bcbe
000000f0: a975 6bbf 1c21 f33e e173 753d a540 99bf
00000100: e0a2 ac3e ac0f c63e 908d fa3e 282d 173e
00000110: b4ef ad3f ffc5 2d3e 42d9 2e3f 7ada 793f
00000120: ef70 383f b435 f93f 1135 a5bf 1a2c 003f
00000130: 89b7 ed3e c703 8a3f d3d9 183e e59a 043f
00000140: 2dd3 853f 3bdf 163f dfa4 c33e a8a9 423f
00000150: ad82 87be f7f2 8d3f d493 b43f 2097 b2bd
00000160: 198b 4e3f e51e 8c3e 974f 4b3f 9194 5f3f
00000170: c098 a53f 1926 873e 6d0d 0c3f deee 7a3f

layers.4.bias f4 [3]
0.25270748 0.66190624 -0.6318293
00000000: e062 813e b072 293f 91bf 21bf
