checkpoints/ckpt_50_ep_seed_123.pt (torch, 5696 bytes, 6 tensors)

layers.0.weight f4 [16, 4]
-0.7299534 -0.42887592 -0.8338874 -0.1463536 -0.20883691 0.4699709 -0.31049114 -0.6570066
-0.6411024 -0.0029905161 -0.937452 -0.6275665 -1.0219308 -0.9008887 -0.78122205 -0.6952778
-0.76986796 -0.0575789 -0.46982977 0.6816237 -0.1814698 -0.4229815 -0.47722086 -0.19451496
-0.28686905 0.1491307 -0.57128936 -0.23475201 3.7512567e-05 -0.84704286 0.6116755 0.811342
-0.7305708 -0.4640684 -0.6230897 -1.1182809 -0.817834 -0.5447702 -0.74692726 -0.3590899
-1.0465188 -1.2083815 -0.6527995 0.054767918 -0.037554033 -0.03067933 0.37882227 0.827557
-0.35749012 -0.45267588 -0.46048063 -0.5238406 -0.18553883 0.20546621 -0.7926825 -1.300969
-1.1975034 -0.457258 -0.8543361 -1.2342104 0.33267298 0.65817106 -0.5750902 -0.80339634
00000000: 3ade 3abf a095 dbbe a579 55bf b8dd 15be
00000010: 58d9 55be 07a0 f03e b2f8 9ebe 9631 28bf
00000020: 491f 24bf 89fc 43bb dbfc 6fbf 33a8 20bf
00000030: a1ce 82bf a4a0 66bf 2bfe 47bf bafd 31bf
00000040: 1116 45bf dad7 6bbd 878d f0be e47e 2e3f
00000050: 38d3 39be 0891 d8be 4b56 f4be ee2e 47be
00000060: 80e0 92be b8b5 183e 0540 12bf d562 70be
00000070: d056 1d38 cdd7 58bf c496 1c3f 1cb4 4f3f
00000080: b006 3bbf 609a edbe ce82 1fbf d423 8fbf
00000090: 925d 51bf 0f76 0bbf a036 3fbf a2da b7be
000000a0: 54f4 85bf 3fac 9abf de1d 27bf 5354 603d
000000b0: 42d2 19bd 3853 fbbc fef4 c13e c7da 533f
000000c0: f208 b7be 22c5 e7be 1ec4 ebbe 6b1a 06bf
000000d0: e4fd 3dbe bc65 523e 3eed 4abf 2786 a6bf
000000e0: cb47 99bf b81d eabe c5b5 5abf 9bfa 9dbf
000000f0: 1d54 aa3e e67d 283f 1d39 13bf 62ab 4dbf

layers.0.bias f4 [16]
-0.6790119 0.26321757 -0.35687715 -0.65240836 -0.8760394 -0.2563177 0.44779992 -0.18184921
-1.274599 -0.7914093 -0.7619912 -0.09826325 -0.5856979 -0.667186 -0.9164117 0.6989825
00000000: b9d3 2dbf 74c4 863e 9ab8 b6be 3c04 27bf
00000010: 1e44 60bf 133c 83be 0846 e53e ae36 3abe
00000020: 0f26 a3bf cd99 4abf db11 43bf 3e3e c9bd
00000030: 4cf0 15bf b4cc 2abf f599 6abf 84f0 323f

layers.2.weight f4 [32, 16]
0.4375344 0.8058371 0.24746846 0.4464536 0.08558345 -0.3053582 0.08498697 0.1614119
-0.20707819 0.88578224 -0.12986039 0.49261206 -0.17858428 0.50456053 0.1845041 -0.92851
0.09837626 0.37645727 0.3340133 -0.7920992 -0.6030205 -0.16439931 -0.64686793 -0.026317164
0.4276238 -0.7972524 -0.6787492 -0.93949807 0.24767976 0.17710431 -0.5151805 0.03536754
0.79291487 0.75848186 0.5652671 0.6485219 0.5524874 -0.14857814 0.71454495 0.38915312
-0.44049078 0.70680875 1.0845827 0.38318348 -0.27765658 -0.31332397 0.56381685 -0.8206793
-0.17464586 -0.19352299 -0.13574335 -0.65433455 -0.8590172 -0.07907447 -0.879395 -0.12059651
0.58776444 -0.69111 -0.7032298 -0.9260306 0.17517737 0.4883288 -0.62786746 1.4938892
-0.61183167 -0.8497055 -1.048069 -0.7033617 -0.9622607 0.36462337 -0.7837602 0.12651516
0.33263338 -0.56680346 -0.5443957 0.21681036 0.71722245 -0.6122235 -1.0587939 0.5759616
0.2085852 -0.38914746 -0.29341784 -0.39248693 -0.36147937 -0.4496652 -0.32509363 -0.69099
-0.52976173 -0.40683672 -0.3962351 -0.15057634 -0.48349375 0.7471567 0.16174178 0.5985169
0.030198298 -0.2618095 1.0680135 -0.54428214 -0.5229319 -0.9260711 0.35901475 -0.70297885
-0.90056205 -0.6702658 0.6161225 0.23795377 -0.55431 -0.5782896 0.37401888 0.03226319
-0.09845797 -0.50130653 -0.51737905 0.44088528 0.5823465 0.67555755 -0.012844986 0.6318694
0.5263074 0.58780915 -0.31555358 0.07086559 0.6092877 -0.7220232 -0.4525965 0.3652663
0.46109036 0.5012718 0.41852194 -0.5911356 -0.29610315 -0.8295738 0.5239037 -0.9221145
-0.33452338 -0.70308954 -0.039836936 -0.31100145 -0.75107116 0.04679969 0.4855273 -0.36557582
1.1490946 0.0009043906 0.6654075 0.39659253 0.75600433 -1.0745275 0.58986866 -0.7269849
-1.0551213 0.67267555 0.6899544 0.11425804 -0.8474786 -0.5553222 0.6152199 -0.0797014
0.41178066 0.057870023 -0.06277886 -0.5213914 -0.03286912 -0.07669336 0.10623473 -0.5005512
-0.18812281 -0.40764043 0.30406803 -0.2871145 -0.08324009 0.49477282 0.30246142 0.121436305
0.94573486 -0.107236914 1.0770994 0.85635495 0.48127922 -1.1602613 0.5975829 -0.6018914
-0.64346486 0.76369935 0.71443766 -0.07758609 -0.76581615 -0.055660795 0.6552683 0.29857036
0.78680676 0.565494 0.58613783 0.3748755 0.53042626 -1.0465628 0.4679782 -1.2924719
-0.4174917 0.37247732 0.8456723 -0.65636474 -0.75674206 -0.3479937 0.81206506 -0.6752706
-0.54364246 -0.45284367 -0.26273546 -0.7234183 -0.5948983 -0.7256276 -0.95534444 -0.8814137
-0.55144036 -0.6310145 -0.44610235 -0.6876521 -0.52157885 0.9759599 -0.5472876 1.142267
0.6678581 0.9002679 0.5919008 0.51202804 0.73124367 -0.02452981 0.34107065 0.74818665
-0.44588 0.93550307 0.32735243 0.1928307 -0.43700492 0.06809381 0.5594497 -1.0466907
-0.23415126 -0.7536795 0.07151649 0.6338537 0.5936867 0.48694703 -0.1414866 0.6493322
0.42283154 0.596091 -0.6060088 0.043357555 0.5483281 -0.6008665 -0.20651059 0.20226997
00000000: 8204 e03e 574b 4e3f 5f68 7d3e 9195 e43e
00000010: 6046 af3d e957 9cbe a60d ae3d 2949 253e
00000020: 4e0c 54be a0c2 623f 1ffa 04be a637 fc3e
00000030: ccde 36be e12a 013f a5ee 3c3e d5b2 6dbf
00000040: 7e79 c93d 02bf c03e cb03 ab3e 03c7 4abf
00000050: 8d5f 1abf 4b58 28be 2399 25bf 1897 d7bc
00000060: 82f1 da3e bc18 4cbf 82c2 2dbf f282 70bf
00000070: c39f 7d3e d55a 353e dfe2 03bf 8edd 103d
00000080: 78fc 4a3f de2b 423f 58b5 103f 8805 263f
00000090: d06f 0d3f de24 18be 6bec 363f 143f c73e
000000a0: 0288 e1be 6bf1 343f 9bd3 8a3f a030 c43e
000000b0: 0129 8ebe 006c a0be 4d56 103f 0a18 52bf
000000c0: 5dd6 32be e42a 46be 4e00 0bbe 7882 27bf
000000d0: 8de8 5bbf ccf1 a1bd 0820 61bf 4efb f6bd
000000e0: bb77 163f 96ec 30bf de06 34bf 5710 6dbf
000000f0: b261 333e 3c06 fa3e ecbb 20bf c337 bf3f
00000100: 00a1 1cbf 4d86 59bf 2027 86bf 830f 34bf
00000110: b856 76bf eaaf ba3e 82a4 48bf 318d 013e
00000120: ec4e aa3e 081a 11bf 845d 0bbf 8903 5e3e
00000130: e49b 373f aeba 1cbf 8f86 87bf 3872 133f
00000140: 5c97 553e 563e c7be dd3a 96be 0cf4 c8be
00000150: d313 b9be 843a e6be ac72 a6be b8e4 30bf
00000160: 779e 07bf e74c d0be 54df cabe af30 1abe
00000170: 7e8c f7be a945 3f3f a39f 253e 6738 193f
00000180: 6c62 f73c e50b 86be abb4 883f 1356 0bbf
00000190: ddde 05bf ff12 6dbf c8d0 b73e 6cf6 33bf
000001a0: 3c8b 66bf 8a96 2bbf 34ba 1d3f 27aa 733e
000001b0: 43e7 0dbf ca0a 14bf 677f bf3e 6826 043d
000001c0: 55a4 c9bd a055 00bf f472 04bf b7bb e13e
000001d0: a914 153f 57f1 2c3f c773 52bc 31c2 213f
000001e0: 15bc 063f a97a 163f 3d90 a1be fa21 913d
000001f0: 47fa 1b3f 83d6 38bf baba e7be 2f04 bb3e
00000200: 0914 ec3e 5953 003f 8248 d63e aa54 17bf
00000210: d59a 97be f35e 54bf 8e1e 063f b20f 6cbf
00000220: a646 abbe adfd 33bf 0e2c 23bd 953b 9fbe
00000230: 3346 40bf 08b1 3f3d 0997 f83e c12c bbbe
00000240: 8815 933f a014 6d3a 2558 2a3f 2d0e cb3e
00000250: 8089 413f 1e8a 89bf a201 173f af1b 3abf
00000260: 370e 87bf 7734 2c3f daa0 303f 1f00 ea3d
00000270: 5cf4 58bf 9829 0ebf 0d7f 1d3f 7d3a a3bd
00000280: ead4 d23e 1e09 6d3d 3492 80bd e879 05bf
00000290: c5a1 06bd 6911 9dbd 9891 d93d 2024 00bf
000002a0: 44a3 40be 3fb6 d0be ceae 9b3e ac00 93be
000002b0: c879 aabd dd52 fd3e 39dc 9a3e 99b3 f83d
000002c0: ae1b 723f 079f dbbd 65de 893f 143a 5b3f
000002d0: 3b6a f63e 7183 94bf 31fb 183f 8e15 1abf
000002e0: 1dba 24bf cd81 433f 63e5 363f 75e5 9ebd
000002f0: 870c 44bf 93fc 63bd aabf 273f 37de 983e
00000300: 2b6c 493f 37c4 103f 210d 163f aeef bf3e
00000310: 04ca 073f c5f5 85bf d79a ef3e b86f a5bf
00000320: 79c1 d5be 59b5 be3e fb7d 583f 8507 28bf
00000330: d9b9 41bf 3b2c b2be 7fe3 4f3f 89de 2cbf
00000340: 272c 0bbf 20db e7be 4385 86be f131 39bf
00000350: 414b 18bf bbc2 39bf 7491 74bf 54a4 61bf
00000360: 322b 0dbf 2b8a 21bf 8767 e4be f809 30bf
00000370: 3186 05bf 82d8 793f 0a1b 0cbf ce35 923f
00000380: c0f8 2a3f f577 663f d086 173f 4514 033f
00000390: c932 3b3f bdf2 c8bc d0a0 ae3e 2989 3f3f
000003a0: 624a e4be 217d 6f3f bd9a a73e 6975 453e
000003b0: 1cbf dfbe c474 8b3d 1838 0f3f f6f9 85bf
000003c0: 59c5 6fbe 24f1 40bf 3d77 923d 3c44 223f
000003d0: dafb 173f 1f51 f93e dde1 10be a33a 263f
000003e0: 607d d83e 6b99 183f 6523 1bbf b197 313d
000003f0: 3b5f 0c3f 63d2 19bf 8377 53be dc1f 4f3e

layers.2.bias f4 [32]
-0.44033846 -0.23243237 -0.5239393 -0.02366576 0.9406146 -0.2001483 -0.21034598 0.8929049
-0.8455627 -0.89031327 -0.1692135 -0.7391588 -0.64407486 0.32122788 -0.34013382 0.857057
0.10041017 -0.4059602 -0.8598258 -0.075168364 -0.8085392 -0.31559592 -0.59325135 -0.7651261
-0.19030239 -1.4134144 -0.62876076 -0.022677124 0.7018649 -1.0539463 -1.3041729 -0.08286087
00000000: 0b74 e1be c002 6ebe e320 06bf b2de c1bc
00000010: 1ecc 703f adf3 4cbe f064 57be 6a95 643f
00000020: cc76 58bf 92eb 63bf 4e46 2dbe 8339 3dbf
00000030: 17e2 24bf fb77 a43e 0526 aebe 1668 5b3f
00000040: d9a3 cd3d 04da cfbe 8b1d 5cbf dff1 99bd
00000050: 6dfc 4ebf ca95 a1be 52df 17bf 4edf 43bf
00000060: a1de 42be c3ea b4bf 77f6 20bf 60c5 b9bc
00000070: 6bad 333f b6e7 86bf 23ef a6bf f6b2 a9bd

layers.4.weight f4 [3, 32]
-0.187916 -0.33927932 -0.41569364 0.75232846 -0.97119427 0.19675395 -0.3294169 -1.3453195
-0.66788405 -0.20651849 0.32885507 -0.3493476 -0.211467 1.1510581 -0.5406892 -1.3718145
0.7777931 0.58162 0.70491076 -0.3673808 0.033316564 0.10685295 -0.7318675 -0.5886093
-0.13861479 -0.5458415 0.25703374 -0.32649887 0.5851578 -0.5308707 -0.64852744 -1.268402
-0.25527456 0.09180418 -0.28050566 -0.552915 0.3494531 -0.28963548 -0.5368105 0.2739635
-0.12389146 -0.3532205 -0.12976749 -0.17140298 -0.053312495 -0.6540465 -0.25869814 0.18133906
-0.3706613 -0.00080827746 -0.6659409 -0.85226035 -0.22304031 -0.42376408 0.03298454 -0.21125375
-0.32702997 0.24332546 -0.41588894 -0.2886809 0.74520165 0.059664052 0.21846528 0.12709406
0.5361114 -0.041705783 0.5349714 -0.08584092 -0.099472255 0.44445693 1.2992183 0.17972104
0.52502364 0.60992926 0.2704096 0.7412062 0.7329591 0.25490117 0.6980509 0.17764366
0.054803025 -0.07449333 0.5870845 1.2621822 0.05287265 1.0709958 1.1084915 0.7207506
0.08411987 0.65291643 0.47573528 1.2478285 -1.3488591 0.056347966 0.51874524 0.5642674
00000000: 0d6d 40be 05b6 adbe ccd5 d4be 9998 403f
00000010: 30a0 78bf de79 493e 55a9 a8be 6e33 acbf
00000020: 73fa 2abf 9579 53be b15f a83e b0dd b2be
00000030: ce8a 58be df55 933f 9b6a 0abf 9e97 afbf
00000040: 731d 473f 0ce5 143f 0875 343f 5619 bcbe
00000050: f376 083d b8d5 da3d ab5b 3bbf 19af 16bf
00000060: 09f1 0dbe 45bc 0bbf ed99 833e dc2a a7be
00000070: e7cc 153f 24e7 07bf e505 26bf ff5a a2bf
00000080: 59b3 82be d403 bc3d 709e 8fbe d68b 0dbf
00000090: 84eb b23e 1a4b 94be 6a6c 09bf f244 8c3e
000000a0: ceba fdbd 51d9 b4be c5e1 04be 4384 2fbe
000000b0: 345e 5abd 976f 27bf 1574 84be f2b0 393e
000000c0: 51c7 bdbe 95e2 53ba 1a7b 2abf bc2d 5abf
000000d0: ae64 64be 9bf7 d8be cc1a 073d e752 58be
000000e0: 7970 a7be 4f2a 793e 65ef d4be fccd 93be
000000f0: 89c5 3e3f 4b62 743d 5db5 5f3e f224 023e
00000100: 993e 093f afd3 2abd e3f3 083f 5dcd afbd
00000110: 1cb8 cbbd dc8f e33e c94c a63f cb08 383e
00000120: f367 063f 5324 1c3f 2173 8a3e b1bf 3d3f
00000130: 35a3 3b3f 6882 823e 77b3 323f 38e8 353e
00000140: 2379 603d f68f 98bd 2b4b 163f 308f a13f
00000150: fe90 583d 6416 893f 0de3 8d3f 1c83 383f
00000160: 0a47 ac3d 8825 273f 9393 f33e d8b8 9f3f
00000170: 6aa7 acbf 20cd 663d 7dcc 043f d473 103f

layers.4.bias f4 [3]
0.17355445 0.4510098 -0.255108
00000000: 42b8 313e c2ea e63e 849d 82be
